linear_decoder.pth (torch, 17730 bytes, 2 tensors)

lin.weight f4 [63, 63]
0	0x3ee70af1	0.45125535
1	0x3c09a023	0.008399996
2	0xbc0c8358	-0.008576237
3	0xbb8ac599	-0.0042349813
4	0x3b175257	0.002308985
5	0x3bec5ce2	0.007213221
6	0x3bdf03c9	0.006805871
7	0xbb2406f3	-0.0025028556
8	0xbb8b2a03	-0.0042469515
9	0xbb98bfa1	-0.004661516
10	0xbc56863c	-0.013093527
11	0xbaf50212	-0.0018692634
12	0x3bc26a6f	0.005933098
13	0xbbc7a6a1	-0.0060928618
14	0xb9b11bb8	-0.00033780723
15	0xbb68e0cb	-0.0035534378
16	0xbba370f2	-0.0049878294
17	0xbc8bea4b	-0.017079493
18	0xbc0b8e53	-0.008517819
19	0x39cc6f25	0.0003899272
20	0xbbc622d2	-0.0060466314
21	0x3c8dbc85	0.017301807
22	0xbd2da3b5	-0.04239245
23	0xbc4cafb9	-0.012493067
24	0x3c1e310e	0.00965525
25	0x3bbd7749	0.005782042
26	0x3be290ce	0.0069142347
27	0x3cba9af9	0.022778975
28	0x3cad0614	0.021121062
29	0xbd342200	-0.043977737
30	0xbd228cda	-0.039685108
31	0xbd986435	-0.07440988
32	0x3d294f02	0.041335113
33	0x3d86f1c1	0.0658908
34	0x3c6a4409	0.014298447
35	0xbd15410d	-0.03643899
36	0xbaccf141	-0.0015635864
37	0x3c56bddc	0.013106789
38	0x3d0fecc7	0.035137918
39	0x3b404f39	0.0029344095
40	0xbb82c486	-0.0039907126
41	0x3bfe9fbe	0.0077705076
42	0x3c328ca7	0.010897792
43	0xbc14f296	-0.00909104
44	0xbc6df6f9	-0.014524215
45	0xbc724f0c	-0.014789354
46	0x3c923e1d	0.017851884
47	0x3c6b0c3d	0.01434618
48	0x3cc651cd	0.024208928
49	0x3c0b2ba6	0.008494293
50	0x3cad36e1	0.021144332
51	0xbc299946	-0.010351485
52	0x3b6d056e	0.0036166566
53	0xbbc5ff12	-0.0060423696
54	0xbc5cbdaa	-0.013472954
55	0x3b78add9	0.0037945418
56	0xbcd59ae4	-0.026074834
57	0xbb50c0da	-0.003185323
58	0xbb8bbf74	-0.0042647664
59	0x3c2590b6	0.010105303
60	0x3d3fb036	0.046798907
61	0xbc642c1c	-0.013926532
62	0x3c641e38	0.01392322
63	0xbbf1472a	-0.0073632197
64	0x3ef85487	0.4850199
65	0x3b1ec155	0.0024224122
66	0x35b103c6	1.3188626e-06
67	0x3a43e0c9	0.0007472155
68	0xbabb640f	-0.0014296788
69	0xbc01156e	-0.007878644
70	0xb9572116	-0.00020516323
71	0x3bffcaad	0.0078061433
72	0xbb1da7d3	-0.002405633
73	0xba16b0db	-0.00057483994
74	0xba7e0e3d	-0.0009691453
75	0xbbc6fbda	-0.0060725035
76	0xba5904f7	-0.0008278633
77	0x3b6a88ee	0.0035787183
78	0x3bcf63cc	0.0063290354
79	0x3ae65708	0.0017573545
80	0xba8ca766	-0.0010731041
81	0xba751407	-0.00093489926
82	0xb8fcce47	-0.000120547185
83	0x3b266814	0.0025391625
84	0x3c3948ff	0.0113089075
85	0xbbad405d	-0.0052872137
86	0x3c333a58	0.010939203
87	0xbc81086e	-0.01575109
88	0x38eddc94	0.000113421265
89	0xbb00d3b0	-0.0019657426
90	0xbbf56a67	-0.007489491
91	0x3c2c6cd4	0.0105239935
92	0xbbb2b810	-0.005454071
93	0x3b5ae0e8	0.0033398215
94	0xbcbd7322	-0.023126189
95	0x3d1b9050	0.037979424
96	0x3c9a1b10	0.018811733
97	0x3b27786c	0.0025553955
98	0x3c79e6e3	0.015252802
99	0x3ca36efb	0.01995038
100	0x3c27510b	0.010212193
101	0xbcfe565a	-0.031047035
102	0x3b4a186f	0.0030837317
103	0x37833a1c	1.5643476e-05
104	0xbb03fd6b	-0.0020140063
105	0x3978e50d	0.00023736451
106	0x3b30b81a	0.0026965202
107	0xbb2e0a8c	-0.002655658
108	0xbb282e40	-0.0025662333
109	0xba812edb	-0.0009855883
110	0x3cf980ac	0.030456863
111	0xbc367814	-0.011137027
112	0xbb037e98	-0.002006447
113	0xbb4e4de4	-0.0031479532
114	0xbc278a18	-0.010225795
115	0xbc09e559	-0.008416497
116	0xbbb914df	-0.00564824
117	0x3c7118ed	0.014715415
118	0xbc794bcf	-0.015215828
119	0x3c040f20	0.008060247
120	0x3a14684b	0.0005661293
121	0x3b102572	0.0021994975
122	0x399e4bff	0.0003019273
123	0x3cd8b6ec	0.026454411
124	0xbb29a67b	-0.0025886584
125	0x3b274e3f	0.0025528816
126	0xba791221	-0.00095012976
127	0xbadbad80	-0.0016760081
128	0x3efdaf6f	0.49547908
129	0x39acc2fa	0.00032951665
130	0x397a1900	0.00023851171
131	0x3989c87c	0.0002628005
132	0x3a8be80f	0.0010674017
133	0x39e9df49	0.00044607584
134	0x3abd8280	0.0014458448
135	0x3a31afdf	0.0006778221
136	0x39a4aaf6	0.00031407893
137	0xbb12dd60	-0.0022409782
138	0xb9599d69	-0.00020753373
139	0x3aa14066	0.0012302517
140	0x3adcf050	0.0016856287
141	0xba081f13	-0.00051926187
142	0x3a42fdbe	0.0007438323
143	0xba339ee8	-0.0006851987
144	0xb912f0b1	-0.0001401331
145	0x39f80ed2	0.00047313288
146	0xbac55b80	-0.0015057176
147	0xbbe5684d	-0.007000959
148	0xbb071de1	-0.0020617174
149	0xbb1fcee8	-0.00243848
150	0xbb5d1431	-0.003373396
151	0x39a7b601	0.00031988326
152	0xba965893	-0.0011470489
153	0x3b45beeb	0.003017361
154	0xbc61eb1d	-0.0137889655
155	0x3aa71e3e	0.0012750102
156	0x3bf52ee3	0.007482396
157	0xbd0a4295	-0.033754904
158	0xba8ca415	-0.0010730053
159	0xbacbdc3a	-0.0015553304
160	0x387ce61b	6.0295784e-05
161	0x3bd2b6d9	0.0064304885
162	0x3b3ea036	0.0029087192
163	0x3a96a39f	0.0011492855
164	0xba4707cd	-0.000759241
165	0x39eda91c	0.0004533016
166	0x380ab7f1	3.3073073e-05
167	0x39ba7480	0.00035563484
168	0x397e8fc3	0.00024276883
169	0x39dd350b	0.00042191925
170	0xb9f39afa	-0.00046464038
171	0xb87ce61b	-6.0295784e-05
172	0x3bd26144	0.0064202864
173	0x3a89e5b8	0.0010520732
174	0xbbe489f7	-0.0069744545
175	0x39b9cc7c	0.00035438302
176	0x3c62b1e7	0.013836361
177	0x3b4de9ea	0.0031419941
178	0xbc5c4c40	-0.013445914
179	0x39a4639e	0.00031354738
180	0xbacfb7a2	-0.0015847574
181	0x3b140d9f	0.0022591127
182	0x3a7be94a	0.0009609653
183	0x387e251f	6.059289e-05
184	0x3ac9d631	0.0015398917
185	0x39ab96a1	0.0003272789
186	0xbaa26667	-0.0012390137
187	0xb87ce785	-6.02971e-05
188	0x387ce27c	6.0292412e-05
189	0xbb954f37	-0.0045565623
190	0xb7c96628	-2.4008637e-05
191	0xb96c214e	-0.00022519121
192	0x3efe1bb3	0.49630508
193	0x3a754509	0.00093562953
194	0xba7c9ef0	-0.00096367206
195	0xb887191a	-6.441977e-05
196	0xb9830df2	-0.00024996657
197	0x3a3b3b10	0.0007142285
198	0xba05415c	-0.00050832867
199	0xbaedf405	-0.0018154389
200	0x3b91817b	0.004440484
201	0xbb671b88	-0.0035264213
202	0xba262c4b	-0.00063389976
203	0xb9ecf016	-0.00045192306
204	0x3abaaf31	0.0014242885
205	0x3b52deb8	0.0032176208
206	0x38a71d76	7.968668e-05
207	0xbaa88596	-0.0012857195
208	0xb9d37478	-0.00040331832
209	0x3a09258f	0.0005231732
210	0xbb22c28d	-0.00248352
211	0xbc07b2c2	-0.008282365
212	0x3d0540f9	0.032532666
213	0xbbb38f28	-0.005479712
214	0x3ae4a0f7	0.0017442991
215	0x3ae1ecae	0.0017236674
216	0xbba310f3	-0.0049763857
217	0xbc605258	-0.013691507
218	0xbcad51fb	-0.021157255
219	0x3a273880	0.00063789636
220	0xbc5bdf67	-0.0134199625
221	0x3c034b18	0.008013509
222	0xbc4f2367	-0.012642718
223	0x3986b8b3	0.00025696083
224	0x3c9eb34d	0.019372607
225	0x3bbc9a1e	0.005755677
226	0xbc448570	-0.011994705
227	0x3d470464	0.04858817
228	0xba486083	-0.0007643776
229	0xb9c96d61	-0.000384192
230	0x3a2d3fc6	0.0006608929
231	0x3a64f8c1	0.0008734577
232	0xba2f4235	-0.0006685586
233	0x3bdf8974	0.0068218056
234	0xb986c2a3	-0.00025703487
235	0xbbe6901a	-0.007036221
236	0x3c0a3bd3	0.008437115
237	0x3c681aa2	0.014166506
238	0x3a2d4f4d	0.0006611243
239	0x3966657f	0.0002197232
240	0x3c0394de	0.008031098
241	0xbb52c015	-0.0032157947
242	0xbab21f7b	-0.0013589704
243	0x3c08e626	0.008355653
244	0x3c3db99f	0.0115799
245	0xbca99b04	-0.0207038
246	0xba6bfa94	-0.00090018776
247	0xba5e38de	-0.0008477102
248	0x3a58d6ec	0.0008271772
249	0xba40f382	-0.0007360504
250	0xb986c148	-0.00025702477
251	0x3986d11d	0.00025714273
252	0xba8c4c8b	-0.0010703964
253	0xbb20e76b	-0.0024551998
254	0x392ddbe2	0.00016580478
255	0x379a4197	1.8388773e-05

lin.bias f4 [63]
0	0x3b72f654	0.0037073093
1	0x3b01e1e0	0.001981847
2	0xb6ec6e2a	-7.046173e-06
3	0x3ac6b032	0.0015158711
4	0xba2d146b	-0.0006602469
5	0x39b94bf3	0.00035342536
6	0x3a151d07	0.00056882243
7	0x3ad487c8	0.0016214782
8	0xb8300f04	-4.1975654e-05
9	0xbaa81861	-0.0012824648
10	0xba960eda	-0.0011448518
11	0x3a54aa0c	0.0008112497
12	0xba6ceddc	-0.00090381294
13	0x3b88db45	0.0041765296
14	0xba0081a3	-0.000490213
15	0xbaaf659f	-0.0013381726
16	0x39a47a94	0.00031371845
17	0x3ad5b410	0.0016304273
18	0xba9b835b	-0.0011864709
19	0x3a00aa36	0.0004908176
20	0x3cb860c8	0.022507086
21	0xbb964969	-0.004586388
22	0x3a23fc23	0.0006255528
23	0x3c154bf5	0.009112348
24	0x3c0039b2	0.007826256
25	0x393a30cb	0.00017756519
26	0xba9be410	-0.001189353
27	0x39efc6b6	0.00045733684
28	0xbb7352fd	-0.0037128322
29	0x3c90e4aa	0.01768716
30	0xba3c3d92	-0.00071808056
31	0x3d41da8d	0.047327567
32	0x3cba6892	0.022754941
33	0x3bc02e63	0.0058649047
34	0xbc4dfa22	-0.012571843
35	0xbc747f1f	-0.014922886
36	0x3bf00275	0.0073245117
37	0xbc68f95e	-0.01421961
38	0xba028796	-0.00049793103
39	0xbcb50714	-0.022098102
40	0xba8944ce	-0.0010472776
41	0x3bc06924	0.0058719087
42	0xbc8dc641	-0.017306449
43	0x3c7f224f	0.015572145
44	0x3b19cd62	0.0023468365
45	0x3bb8d5c8	0.005640719
46	0x3a04c4de	0.0005064736
47	0x3a352d3a	0.00069113413
48	0x3b01039c	0.001968599
49	0xbc6e04a4	-0.014527474
50	0xbae3819b	-0.0017357351
51	0xbc46a48e	-0.012124194
52	0x3cbe18cf	0.023205189
53	0xbb5b4f95	-0.0033464183
54	0x3b960432	0.004578137
55	0x3c3c429f	0.011490493
56	0xbac3e25a	-0.0014944777
57	0x3bdf5999	0.006816101
58	0xbb1177a5	-0.0022196558
59	0xbcdcc8a2	-0.026951138
60	0xbc5def40	-0.013545811
61	0xba063b27	-0.0005120509
62	0xbacc0158	-0.0015564365
