residual_decoder.pth (torch, 17742 bytes, 2 tensors)

lin.weight f4 [63, 63]
00000000: b4cb e03e 8b91 ad3b 6c4d e9bb db31 e63b
00000010: 0ed2 853a b415 7f3b 9992 303c 52b4 afbb
00000020: 3f07 f1bb c6c7 e6bb a069 91bc 914a fb39
00000030: 1c4d 78bb 5097 b0bb 561c bd39 a737 58b9
00000040: 6f13 a4ba 8cff 27bc 25bc 10bc 9972 c13b
00000050: 3632 dd3b b772 713a e3c4 a13d 639e 83ba
00000060: 92eb 76bd 7635 b73b cc65 c33b f454 9d3c
00000070: 98f8 6fbc c8d5 3cbc 916f 4e3d aada 84bc
00000080: 1ee0 3ebc a46a 1c3d bd66 9d3c ecf3 913d
00000090: da41 41bd 8efc 0f3d 894f 003d 6316 1a3b
000000a0: f592 53ba 8e2a 1d3c 7626 033c 4544 3dbc
000000b0: 5bef 143b b0a4 5fbc be44 483c 490f 7aba
000000c0: d327 9a3c 012d 143c 82a7 903c a700 353d
000000d0: b23a 0c3c f465 97bb 1d1b a33d a94c 8e3c
000000e0: 8d66 1a3d 20d6 84bb f2b4 f0bb 24af 2b3c
000000f0: 3505 893d 5039 a1bc 4eb8 a13c 8f06 f8bb
00000100: f63a f83e 99d2 1f3b 16a5 11b9 6432 403a
00000110: 5147 bbba 230d 01bc d9d2 59b9 0245 ff3b
00000120: 74a3 1dbb 591a 1dba 0d27 81ba 9f2a c0bb
00000130: a9ba 4aba 2728 673b 138e cc3b dd01 e33a
00000140: 6e2a 90ba fc27 70ba 4fa9 03b9 f193 44ba
00000150: 3bc4 21bb 969b 91bc cab2 85bc fde6 a43c
00000160: e4fe ed38 9600 03bb 47a5 01bc e194 cabb
00000170: b368 26bc 1322 ae3b bbcb a33c 9bb6 05bd
00000180: 4825 1d3c 13e0 283b ce0e 193d 748b dcbc
00000190: 87b2 d4bb 907c 343d 80f6 493b d415 b637
000001a0: 67de 03bb e81e 8339 7616 313b 1fd8 743a
000001b0: 5100 29bb 4603 c03b 8cb9 f2bc c9f9 93bb
000001c0: e375 03bb 51f1 febb 7185 17ba 881d 9abc
000001d0: 6915 b9bb 309e 05bb b133 213b c5c6 963c
000001e0: 2ed0 0e3a d601 103b f4bf 9939 616e aabb
000001f0: 79ab 26bb 181e 283b 0512 79ba 80ad dbba
00000200: 6faf fd3e eec2 ac39 0019 7a39 7cc8 8939
00000210: 0fe8 8b3a 49df e939 8082 bd3a dfaf 313a
00000220: f6aa a439 f4e3 12bb ad9d 59b9 6640 a13a
00000230: 50f0 dc3a 131f 08ba befd 423a c89e 33ba
00000240: b1f0 12b9 d20e f839 b6b1 88ba 838b ca3a
00000250: 49a1 2dbb d397 5c3b da62 b53a 01b6 a739
00000260: 9358 96ba af7e 453b e37c 4f3c 8f55 253c
00000270: da46 353b fd40 353d f51e f73c 19ce 3ebb
00000280: 1be6 7c38 2e41 56bb a628 de3a 7b36 caba
00000290: 851c 02bb 1ca9 ed39 92ba 0a38 8074 ba39
000002a0: 7a90 7e39 b034 dd39 f41d d03b 1be6 7cb8
000002b0: 0b27 223c b861 093d 7d0a 7d3c 7ccc b939
000002c0: 9716 91bb 685f 993a 1253 e1bc 9e63 a439
000002d0: 7559 aaba 74ca e7b9 a258 c5ba 0e40 8038
000002e0: 31d6 c93a a196 ab39 c9fe e1ba 85e7 7cb8
000002f0: 7ce2 7c38 3a90 99bb b8c7 c9b7 ec12 6cb9
00000300: 4bf8 fd3e e442 753a e89e 7cba 33f9 86b8
00000310: 610c 83b9 4938 3b3a 8641 05ba 64f5 edba
00000320: 31a4 913b 9529 67bb 0def 25ba aef0 ecb9
00000330: 0fb2 ba3a c915 533b 66c7 a738 ed82 a8ba
00000340: 866f d3b9 2763 033a a276 be3b 4bee ae3a
00000350: 9ee7 063c f3cb 57bc fba0 e43a 46eb e13a
00000360: 7659 a7bb c6ae 8c3c ddc6 b33c 8645 7dbb
00000370: 2451 2cbc 5b54 21bd 6d8a afbc 76db 8639
00000380: 317c c53c 7e6b 1c3b cf81 a6bc de84 22bd
00000390: 8360 48ba da6a c9b9 963f 2d3a affa 643a
000003a0: 8d3d 2fba 90f2 43bb 8ccc 86b9 e78a 81bc
000003b0: 6cbb 13bd 00cb d9bc 714f 2d3a 340d da3a
000003c0: 395d edbb f609 533d 7b1f b2ba d671 2a3c
000003d0: de7c 82bc bee6 dc3c 54e1 6eba 9a39 5eba
000003e0: 57d9 583a 694f 3ebd c4d9 86b9 7add 8639
000003f0: 884c 8cba 6be7 20bb e2db 2d39 973f 9a37
0.43905413 0.005296891 -0.007119825 0.007024986 0.0010209696 0.0038922848 0.010777139 -0.005362072
-0.0073556 -0.007042858 -0.017750561 0.00047930007 -0.0037887758 -0.0053891316 0.0003607 -0.00020620097
-0.0012517999 -0.010253798 -0.00883392 0.0059035537 0.0067503704 0.0009210514 0.07898881 -0.001004171
-0.06028325 0.00559109 0.005963063 0.019205548 -0.014646672 -0.011525579 0.050399367 -0.016217548
-0.011650113 0.038187638 0.019214028 0.071266025 -0.04718194 0.035152964 0.03132585 0.0023511879
-0.00080709095 0.009592665 0.008004775 -0.011551921 0.0022725675 -0.013650104 0.012223421 -0.0009539021
0.018817818 0.009043933 0.017657999 0.044190075 0.008558916 -0.004620308 0.07964156 0.017370539
0.037695456 -0.004053846 -0.007345789 0.0104787685 0.06690446 -0.019680649 0.019741204 -0.007569141
0.48482484 0.0024387 -0.00013889777 0.00073317275 -0.0014288222 -0.007876667 -0.0002077328 0.007790209
-0.0024053724 -0.0005993001 -0.0009853557 -0.005864456 -0.0007733503 0.0035271735 0.0062425225 0.0017319281
-0.0010998973 -0.00091612316 -0.00012556206 -0.00074988516 -0.0024683613 -0.017774384 -0.016320605 0.020129675
0.00011348518 -0.0019989363 -0.00791294 -0.0061822985 -0.010156798 0.0053141206 0.019994607 -0.03264485
0.009591408 0.0025768324 0.037367634 -0.026921965 -0.0064910087 0.044064105 0.0030817091 2.1706255e-05
-0.0020121576 0.00025009294 0.0027021444 0.0009340066 -0.0025787542 0.005859765 -0.029629491 -0.0045158607
-0.002005928 -0.007780232 -0.0005780077 -0.01881291 -0.0056483042 -0.0020388477 0.002459746 0.018405328
0.00054478913 0.002197375 0.0002932545 -0.0052011465 -0.0025431796 0.0025652703 -0.00095012813 -0.0016760081
0.49547908 0.0003295163 0.00023851171 0.0002628005 0.0010674017 0.00044607584 0.0014458448 0.0006778221
0.00031407893 -0.0022413703 -0.00020753471 0.0012302517 0.0016856287 -0.00051926187 0.0007438323 -0.00068519684
-0.0001401331 0.00047313288 -0.0010428939 0.0015452955 -0.0026493839 0.003365983 0.0013838664 0.00031988326
-0.0011470489 0.0030135324 0.012664053 0.0100912 0.002766064 0.04425143 0.030166129 -0.0029114543
6.0295784e-05 -0.0032692659 0.001694937 -0.0015427613 -0.0019853425 0.0004533016 3.307552e-05 0.00035563484
0.0002427715 0.0004219166 0.006351227 -6.0295784e-05 0.009897004 0.033540457 0.015444395 0.00035438302
-0.0044277417 0.0011701407 -0.027505431 0.00031354738 -0.0012996631 -0.00044210593 -0.0015056322 6.115447e-05
0.0015398917 0.0003272789 -0.001724207 -6.02971e-05 6.0292412e-05 -0.0046863826 -2.4054068e-05 -0.00022513763
0.49603495 0.0009355976 -0.0009636716 -6.436035e-05 -0.0002499549 0.0007141871 -0.0005083311 -0.0018154797
0.004444622 -0.0035272588 -0.0006329872 -0.00045192748 0.001424374 0.003220903 8.0003214e-05 -0.0012856402
-0.00040328148 0.0005012028 0.005812482 0.0013346163 0.008233933 -0.013171184 0.0017442995 0.0017236255
-0.0051071 0.017173182 0.021945411 -0.0038646176 -0.010517392 -0.03938709 -0.021428311 0.00025721983
0.02410707 0.0023867781 -0.02032557 -0.039677493 -0.0007643776 -0.00038417318 0.00066089013 0.00087348645
-0.0006684892 -0.0029899217 -0.0002571087 -0.015813304 -0.03606741 -0.026586056 0.0006611264 0.0016636015
-0.007243779 0.05152317 -0.0013589704 0.010403117 -0.015928682 0.026965495 -0.0009112556 -0.0008477211
0.0008272132 -0.04646245 -0.0002572072 0.00025723485 -0.001070396 -0.0024551998 0.00016580478 1.8387842e-05

lin.bias f4 [63]
00000000: 0f5d 553b 22e5 013b 2a6e ecb6 5ab0 c63a
00000010: 6b14 2dba f34b b939 071d 153a c887 d43a
00000020: 4d4c 2cb7 6b18 a8ba da0e 96ba 0caa 543a
00000030: dced 6cba 82d7 883b a381 00ba 9f65 afba
00000040: 947a a439 10b4 d53a 5b83 9bba 36aa 003a
00000050: e660 8abc f489 6238 9514 033c 1d32 953c
00000060: 92af 413c cb30 3a39 10e4 9bba b6c6 ef39
00000070: 5f2a 0bbc 27f2 8ebc ed11 893b fe20 0cbb
00000080: 6ab3 c63c c4f0 163b ae5c 453c 80ba 853c
00000090: 7b5f 733b 054d 8b3c e311 473d 9628 d13b
000000a0: 0d54 8cbb f0f1 a7bc c399 323b c697 9dba
000000b0: 312f ceba d9e8 a7bb c44f 82ba 295a dab7
000000c0: fec0 efb9 6a76 88b8 49c1 903a 6f7b ab3c
000000d0: df46 a43c f8e7 533c 591d 5f3c 4456 ecbb
000000e0: 13f4 213c cf6b 53bc d83c 23bb 343b 4b3c
000000f0: 1959 4bbc 9d42 853a 9564 5c3a
0.0032556688 0.0019820412 -7.046173e-06 0.0015158758 -0.0006602469 0.00035342536 0.00056882243 0.0016214782
-1.0269764e-05 -0.001282466 -0.0011448518 0.0008112497 -0.00090381294 0.004176081 -0.000490213 -0.0013381726
0.00031371845 0.0016304273 -0.0011864709 0.0004908176 -0.016891908 5.4011078e-05 0.008000513 0.018212372
0.011821644 0.00017756519 -0.001189353 0.00045733684 -0.008493989 -0.017449452 0.004183045 -0.002138197
0.024255473 0.002303169 0.012046022 0.016324282 0.0037135768 0.0170045 0.048601042 0.006383012
-0.0042824806 -0.020501107 0.0027252294 -0.0012023381 -0.0015730617 -0.005124193 -0.0009941985 -2.602961e-05
-0.00045729423 -6.507042e-05 0.0011043932 0.020932881 0.020053325 0.012933724 0.013617837 -0.007212432
0.009884852 -0.012904122 -0.0024908092 0.012404252 -0.012411379 0.0010166947 0.0008407322
